mnist_index_model.pth (torch, 248269 bytes, 6 tensors)

weight f4 [64, 784]
000000 55 c0 96 3c 7a 22 81 bc 93 df e2 bb ee 52 89 3c
       0.018402258 -0.01576351 -0.006923625 0.016763177
000010 02 b8 09 bd cc 75 af 3c e5 c1 f0 bb 0c d8 94 3c
       -0.03362275 0.021418475 -0.007347333 0.018169425
000020 8a b0 a2 3b 6e 4b 8f bb b7 4b 22 3c dc ed e6 3a
       0.0049648928 -0.0043730056 0.009905747 0.0017618495
000030 ee b5 55 3c e1 07 64 bc ee a5 2a bb 25 b7 52 bb
       0.013043864 -0.013917894 -0.0026038843 -0.003215262
000040 37 a0 a9 3b 4a 9a 15 b9 98 c1 ff 3c 37 17 36 3c
       0.00517657 -0.00014267224 0.031220242 0.011113933
000050 2e e9 59 bc ac b3 b0 bc 81 28 c4 bb 5c 65 7c bc
       -0.013300223 -0.02157005 -0.0059862738 -0.015405025
000060 17 82 3b bc 01 24 e0 3a f3 68 ae 3c f7 05 9f 3c
       -0.01144459 0.0017100574 0.021290278 0.019412024
000070 72 00 0f bd fc 5e b5 3c c0 77 23 3c 97 c2 0a 3d
       -0.034912534 0.022140019 0.009977281 0.03387698
000080 5a 1d c1 3c 54 49 05 bd f6 16 0b bd da 1d 8d bc
       0.023573566 -0.032540634 -0.033957444 -0.017226148
000090 88 74 00 3d ee ee c2 bb dc 6a 7a 3c 17 f6 87 bc
       0.031361133 -0.005948893 0.015284266 -0.016596837
0000a0 c6 89 0f 3d b3 92 77 bc 15 68 db 3c dc ba dd 39
       0.0350435 -0.015110659 0.026783029 0.00042291626
0000b0 ba 21 9a bc d5 62 96 3c 85 4d 9b bc e1 17 2c 3c
       -0.01881491 0.018357674 -0.018957863 0.01050374
0000c0 d7 f6 28 bc b7 4d 80 bb 2a a3 0c bd 23 7e 8b bc
       -0.010312757 -0.0039155143 -0.034335293 -0.01702792
0000d0 5c c2 9e 3c 25 3c 0e bc 34 b5 11 3d 9a 85 ea 3c
       0.019379787 -0.008681332 0.0355732 0.02862816
0000e0 25 30 db ba 57 49 c3 bc 3a 2a b2 3c 6e 9a 35 3c
       -0.0016722722 -0.023838682 0.02174865 0.011084182
0000f0 bc 1f bd bc c7 09 be 3c e3 9e b1 3c 75 bd 01 3d
       -0.023086421 0.023198022 0.021682208 0.03167482
000100 f5 00 a4 bc d3 a2 c0 bb 6e 5d 35 ba d3 ed aa 3b
       -0.020019988 -0.005878785 -0.0006918524 0.005216339
000110 ae 09 de bc 81 9d cf bc 03 29 9f 3c 17 36 09 bc
       -0.027104225 -0.025343658 0.019428736 -0.008374712
000120 c7 03 c1 3c 14 ed 2d 3c c0 83 74 3c b5 0b 4a 3c
       0.023561371 0.010615606 0.01492399 0.012331893
000130 c2 2d 89 3c e3 07 91 3c 1b 7a 07 bd 2a 44 93 3c
       0.016745452 0.017703956 -0.033075433 0.01797684
000140 ba b6 cd bc 6e bf dc bc 25 57 0e 3b d3 6c c7 bb
       -0.025111545 -0.02694675 0.0021719423 -0.006085971
000150 91 d5 ab 3c 45 70 a9 bc 9d 0b 02 bd a3 ec d4 3c
       0.02097586 -0.020683417 -0.031749357 0.025991743
000160 37 88 ad bb 15 8f a4 3c 4a 1d 3c 3c a7 da ad bc
       -0.005295779 0.020087758 0.011481592 -0.021222426
000170 cd 72 53 3c eb 55 02 3c 38 74 f5 bc c2 8c 01 bd
       0.012905789 0.007955055 -0.029962644 -0.031628378
000180 60 fc d8 b9 8c b8 13 bb 32 2e bc bc 03 04 a6 bc
       -0.00041386764 -0.0022540418 -0.022971246 -0.020265585
000190 4d 15 9f 3c 10 2d f0 bc f3 21 84 3a 84 a4 42 3b
       0.019419337 -0.029318362 0.0010080918 0.002970011
0001a0 55 b3 07 bd 74 c2 e2 bc ae ab aa 3c 90 3c 5c bb
       -0.03313001 -0.027680613 0.020833816 -0.0033605434
0001b0 a3 8b c8 3c 1c 85 f2 3b fc 31 3c 3c ec 89 da 3c
       0.024480646 0.007401122 0.011486527 0.026677094
0001c0 d4 b5 0a 3d 15 25 c2 bc d3 51 92 3b 0b 92 02 3c
       0.03386481 -0.023699323 0.0044653206 0.00796939
0001d0 0f d9 70 3b 91 17 94 3a ea 7c 2f bd 25 3f 9a bc
       0.003675047 0.0011298527 -0.042843737 -0.018828938
0001e0 18 63 11 bd d5 08 ba bc 62 73 80 3c 41 a7 3b bd
       -0.035494894 -0.02270929 0.015680019 -0.045813803
0001f0 f3 1d 1a 3a 00 21 3d bd 4a 8e 68 bd 75 7d f9 bc
       0.00058790966 -0.04617405 -0.056776322 -0.03045533
000200 78 cc b9 bb 3d 19 94 3b 9a 48 5f bd 0e c7 e8 bc
       -0.0056701265 0.00451961 -0.054512598 -0.02841523
000210 1a 34 dd 3a 8a 61 8c 3b 4a b2 04 3c 8a 13 c9 3a
       0.0016876489 0.0042840885 0.008099148 0.0015340906
000220 43 38 88 3b a2 cb 97 3a f5 10 c8 bc 7a b0 f5 bc
       0.0041570975 0.0011581073 -0.024422148 -0.029991377
000230 f0 0f 86 bc 65 46 88 bb b7 3e 29 bd 97 f4 b4 bb
       -0.016365021 -0.0041587823 -0.041319575 -0.0055223214
000240 fc 26 8c 3c 4c d5 01 3b f0 c2 81 3c fc 77 cf 3c
       0.017108433 0.0019810973 0.015840024 0.025325768
000250 3d 57 05 3d 3d 12 64 3c a5 1b 2d bd 24 48 bf 3c
       0.0325539 0.013920364 -0.042262692 0.023349829
000260 6f 71 34 bc 4c fa 20 bc 2a 56 24 bd c4 8c e1 bc
       -0.011013373 -0.0098253 -0.040121235 -0.027532943
000270 28 e0 d7 bc a3 7a ab bc 5d 0c 79 3c 1b 3b f4 bc
       -0.026352003 -0.020932501 0.015200702 -0.02981334
000280 21 6e 5f bd 75 89 df bc 3f fc 94 bc e8 14 11 bc
       -0.054548386 -0.027287224 -0.018186687 -0.008855082
000290 68 c7 0a bd ba b2 cf b7 1b 8d de bc 80 77 03 bc
       -0.033881575 -2.4759549e-05 -0.027166894 -0.0080240965
0002a0 d3 27 e9 bc b7 57 85 bc 66 b7 f8 bc 7b 68 ea bb
       -0.028461372 -0.016277177 -0.030360889 -0.0071535683
0002b0 f3 9f dc 3c 71 84 fb 3b ad 15 ff 3c 99 7f 46 3d
       0.026931738 0.0076757004 0.031138266 0.04846153
0002c0 f6 95 45 3d 30 61 70 3c 5d 36 90 bc 2c 50 25 3d
       0.048238717 0.014671609 -0.017604047 0.04035966
0002d0 b6 03 66 3b 1d 39 24 3c 5c e8 e1 bc 00 d7 00 bc
       0.0035097427 0.0100233825 -0.027576618 -0.00786376
0002e0 e2 ee e3 bc 44 d6 ec 3c 5a 5d b5 bc d1 e1 50 bc
       -0.02782387 0.028910764 -0.02213924 -0.012749151
0002f0 9b a2 65 bc 7b 96 81 bd 07 1d 9c bc 11 4c 3e bd
       -0.014015819 -0.0632753 -0.01905681 -0.04645926
000300 67 44 1d bd 2f e7 10 bd 7f 5c 92 3c 3c cd cd bc
       -0.03839531 -0.035376724 0.017866371 -0.025122277
000310 40 32 b5 3c 50 c3 e7 3c 46 61 25 3d 60 b2 1f bd
       0.022118688 0.028291374 0.04037597 -0.03898847
000320 b8 c6 d0 3a 45 29 23 bd 21 9d a5 3c d0 2f 20 3a
       0.0015928363 -0.03983428 0.020216526 0.000611064
000330 96 a9 1d 3d d5 ad aa 3c ed 07 87 3c b6 f1 b7 3c
       0.038491808 0.020834843 0.016483271 0.022454124
000340 cb 3c a9 3c 41 28 82 3c 58 db 63 3b 98 fe 92 3c
       0.020658871 0.015888335 0.003476819 0.017943665
000350 fe 3c c1 bc 55 d7 e7 3c f2 21 0e 3d c8 22 00 3d
       -0.023588654 0.02830092 0.03470034 0.03128317
000360 7d d5 f4 3c be 93 53 bd e1 ae 47 bd b4 64 9f bc
       0.029886955 -0.05165457 -0.048750762 -0.019457199
000370 37 64 9f bd 5b 2c fb bc db 7d 9d bd fe 16 ce bc
       -0.07782786 -0.030660799 -0.07690021 -0.025157448
000380 ad d5 ba 3c 0d 68 a6 bc d9 d8 f3 ba db ba 91 3b
       0.022806967 -0.020313287 -0.0018604054 0.0044473237
000390 38 73 ff bc 11 b4 7e bc 79 55 49 bd d9 0b 1c bd
       -0.03118287 -0.015545861 -0.04915378 -0.038097236
0003a0 dc b7 44 3d d1 46 c6 3b a7 51 23 bc 40 cc b4 3b
       0.048026904 0.0060509224 -0.009968198 0.0055175126
0003b0 d1 47 cf bc 46 c7 b9 3c 64 8e de 3c 8f 26 5e bc
       -0.0253028 0.022678029 0.027167507 -0.013558998
0003c0 14 04 e7 bb 75 27 a7 3b eb 09 85 3c ab b3 2f 3b
       -0.0070500467 0.005101139 0.01624008 0.0026809971
0003d0 4f 33 ae bc 1a d4 cb bc 58 32 47 bd 81 4e 22 bd
       -0.0212647 -0.024881411 -0.048631996 -0.03962565
0003e0 98 c2 a2 bd b4 72 a4 bc 04 56 7f bc ea c0 46 bc
       -0.07947272 -0.020074226 -0.015584473 -0.012130955
0003f0 15 b3 e3 3b a8 ad b9 3b f4 bc 86 3c 90 2f e9 bc
       0.0069488385 0.0056664534 0.016447522 -0.028465062

bias f4 [64]
000000 4f 6d bb bc 7c d9 a7 3c 67 c3 18 bb 6a d9 2d bc
       -0.02287927 0.020489447 -0.0023309828 -0.010610918
000010 5c fc 05 bd 59 0e b9 bc 6c 16 aa bc 2b bc d4 3b
       -0.03271137 -0.02258985 -0.020762645 0.006492158
000020 6b ab e6 3c b9 97 62 bc f5 d6 a5 3c 24 e6 06 3d
       0.02815791 -0.013830119 0.020244101 0.032934323
000030 2b ef 04 bd d1 e3 d9 bc 84 c6 3d bd 5e 3b 54 bd
       -0.03245465 -0.02659789 -0.046331897 -0.05181443
000040 70 ab 39 bc f5 5c f6 3b 54 65 b0 bc db 84 d8 bc
       -0.011332378 0.0075184056 -0.021532692 -0.026430538
000050 dd 41 e0 bb 76 3f 27 3c f0 05 81 3c 7c 15 05 bd
       -0.006843789 0.010208001 0.015749902 -0.032491192
000060 66 24 71 3c 2c 53 c7 bc c2 51 5c bb 24 79 b1 bc
       0.014718151 -0.024331652 -0.0033618067 -0.02166421
000070 7b f7 53 3c 92 ce 03 3d fc bd d0 3c cb f8 26 3d
       0.012937422 0.032179423 0.025481217 0.04076461
000080 18 df d9 3b 35 d0 a8 bc 1d ed 54 3b 9c 30 c7 bc
       0.0066489093 -0.020607093 0.0032489963 -0.024315171
000090 93 8f 51 bd 56 0f 86 bc 5e 8b 7a bc de c8 d0 bc
       -0.051162314 -0.016364735 -0.015292017 -0.025486406
0000a0 c5 99 21 bd 47 d3 c7 3c fa 05 a9 bc 4d 13 18 bd
       -0.039453287 0.024392737 -0.020632733 -0.03712778
0000b0 fe 93 00 bd b2 7a 29 3c 3f 6f d3 bc 9e 31 87 bc
       -0.031391136 0.010344194 -0.025809882 -0.016503152
0000c0 ae bd 2d bc d5 24 04 3d 16 b9 aa bc bd c8 b5 3c
       -0.010604305 0.03226169 -0.020840209 0.022190446
0000d0 24 0d 17 bd 79 01 e1 3c 55 0f a5 3b 0a 1e 47 3c
       -0.036877766 0.027466523 0.005037228 0.012153158
0000e0 53 ea 92 bc 25 c6 5a bc 1b 1d d4 3c 2c 10 21 bd
       -0.017934 -0.013352905 0.025892785 -0.039322063
0000f0 a9 e1 2f bb b9 38 08 bd 39 1c ad 3c 38 f8 c7 3c
       -0.0026837385 -0.03325722 0.021131622 0.024410352

weight f4 [64, 64]
000000 74 99 a7 bd ee a1 5f 3d c3 c7 b4 3d d0 de c4 bd
       -0.08183566 0.054597788 0.08827164 -0.096128106
000010 33 7f a0 bd a2 78 b0 3d fc 91 7a 3d a6 35 6e 3d
       -0.07836761 0.08616759 0.061174378 0.058156632
000020 b9 e2 a1 3d d2 f9 9d 3c e8 76 8e 3d b1 2c 9f 3b
       0.07904572 0.019284163 0.06956273 0.0048576226
000030 0a ed 96 bd 85 a2 99 bd 52 f1 3d 3d 3d fd f3 3d
       -0.0736943 -0.07501701 0.04637272 0.11913536
000040 50 4b 30 3d 13 2e e4 3c f9 4f f5 bd e5 28 67 bc
       0.043040574 0.027854001 -0.11978144 -0.014108871
000050 f0 61 6a 3d 5d 12 04 bd da cc a3 bd 22 a3 39 3c
       0.057222307 -0.032244075 -0.07998057 0.011330398
000060 83 a4 0d 3c 8f f6 20 bd b0 69 d6 3d fe 44 d5 3a
       0.00864518 -0.039297637 0.10469377 0.0016271172
000070 82 bd b0 3c 37 e6 9f bd 54 ff d6 3d 24 f7 c1 bd
       0.02157474 -0.07807582 0.10497919 -0.094709665
000080 bc 63 6a 3d 5a fa 48 bd 32 30 30 bd 8f e7 ce 3d
       0.05722402 -0.04906688 -0.043014713 0.1010276
000090 c3 f5 ad 3d 4b e9 da 3d e1 8d c2 3d 6b 7c a4 bd
       0.08494141 0.10689028 0.094997175 -0.08031543
0000a0 b2 e7 42 3b 85 2c 76 bd 3c 6c 79 bd 5f 39 f4 3b
       0.0029740152 -0.06010105 -0.060894236 0.007453128
0000b0 24 09 e5 bd 79 bd a1 3d bc 38 c9 bc bc 1d 9d bd
       -0.11183384 0.07897467 -0.024563186 -0.07671687
0000c0 f5 e7 02 bd ef 0b 44 bc 07 a1 86 bd 66 af fc 3d
       -0.031959493 -0.011965736 -0.06573682 0.12338142
0000d0 f6 d1 9d 3c 9e 69 47 3c 9a a0 58 3c fc 96 4f bd
       0.019265156 0.012171177 0.013221884 -0.0506811
0000e0 33 48 a2 bc 30 12 96 bd f3 1c f0 bd 96 21 f6 bc
       -0.019809818 -0.07327688 -0.117242716 -0.030045312
0000f0 08 16 05 be de 62 29 3d 34 e6 2f 3d a1 ed 8a 3d
       -0.12996686 0.041354053 0.04294415 0.06783605
000100 2a 25 15 3a 96 67 75 3d de b9 5b 3c 7d ee f3 3d
       0.0005689437 0.05991324 0.013411013 0.119107224
000110 50 6a 49 bd 57 27 90 3d bb 7f bc 3c b1 7f cc bd
       -0.049173653 0.070387535 0.023010125 -0.09985293
000120 95 d9 c4 3d 41 89 45 bc 17 29 e5 3d 10 03 38 3d
       0.09611813 -0.01205665 0.11189478 0.044924796
000130 e7 47 da bd 75 a5 d8 3d 78 97 33 3d 55 f4 99 bd
       -0.106582455 0.105784334 0.043845624 -0.07517306
000140 de 8c c1 3d 9e 6d e2 bd a7 b6 07 be 53 45 42 bc
       0.094506964 -0.11056064 -0.1325327 -0.0118573485
000150 52 e0 35 bd 25 b1 05 bc 18 c3 92 bd 34 14 aa bc
       -0.04440338 -0.00815991 -0.071661174 -0.020761587
000160 24 33 c9 3d 09 65 85 bd f1 45 e2 bd ff fd 8a 3d
       0.098242074 -0.065134116 -0.110484965 0.06786727
000170 f6 a4 0c 3d c9 3c d7 3b 85 8f 30 3d 66 20 04 3e
       0.034337007 0.0065685255 0.04310562 0.12902984
000180 dd a1 73 bd 37 71 6c bd 7f 7e d5 bd 05 61 6e bd
       -0.059480537 -0.057725158 -0.10424518 -0.058197994
000190 ad 67 85 bd 25 02 e2 bd 9a f0 ba 3d 60 c3 40 bd
       -0.06513915 -0.11035565 0.09127922 -0.047061324
0001a0 89 80 8c bd 29 c5 26 3d a7 31 32 bd ac 6e b3 bd
       -0.06860454 0.04071537 -0.043504383 -0.08761343
0001b0 63 63 f0 bc b5 f2 5f bc 00 e0 81 3d 32 91 70 bd
       -0.029344266 -0.013668706 0.06341553 -0.05873222
0001c0 7c f9 02 3e f3 43 cd bd e2 4c 9b 3d a7 da 65 bd
       0.12790483 -0.10022726 0.075830236 -0.056116726
0001d0 50 11 6e bd 84 79 a4 bb 76 b0 b4 3d e8 0a df 3d
       -0.05812198 -0.0050193686 0.0882272 0.10890752
0001e0 84 39 e5 3c 52 8f cd 3d 72 08 3f 3d 33 1b 46 3d
       0.027981527 0.10037102 0.046638913 0.048365783
0001f0 7c 5d 93 bd f7 79 b9 bd 78 d8 1b 3a b3 52 5d 3d
       -0.07195565 -0.09056466 0.0005945037 0.054033946
000200 d7 44 94 3d c4 8c 31 bc b0 18 79 bd bb 7a 5f 3d
       0.07239693 -0.010836784 -0.06081456 0.054560404
000210 16 ad 36 3d 9a fd b6 3d 12 5d 1d bd 91 4a 93 bd
       0.04459866 0.089350894 -0.038418837 -0.07191957
000220 7e a7 76 3d e5 a3 1b 3d 27 79 9b bd 8e ff 39 3b
       0.060218327 0.0379981 -0.07591467 0.0028381082
000230 78 3f 1c 3d 47 2d 6d bd cf 76 79 3d f6 cd 81 bb
       0.038146466 -0.057904508 0.06090432 -0.00396132
000240 6d 09 83 bd 6f ff 71 bc f2 cc 9a bd ae 6a be 3d
       -0.06398282 -0.014770373 -0.075586215 0.09297691
000250 a3 33 b9 bd 61 7e 9c 3d 54 17 ee 3d bd 23 43 bd
       -0.09043052 0.07641292 0.11625543 -0.047641505
000260 50 45 ef bb 05 34 fa bd e5 c4 21 bd ae 87 3e 3d
       -0.007301964 -0.12216953 -0.039494414 0.046516113
000270 95 86 e7 bd c3 75 9c bd 14 50 3b 3b 0c ea da bc
       -0.11304966 -0.07639649 0.0028581666 -0.02672293
000280 2b 26 f9 3c ad b9 c6 3d 79 9e 86 3c 6c 2a da bc
       0.030413708 0.097033836 0.016432988 -0.026631556
000290 72 30 fb bb b3 cb 43 3d 5d 10 0e be cf 2b a8 3c
       -0.0076656872 0.047801685 -0.1387343 0.020528702
0002a0 e7 11 15 3e f7 4e 22 bd 57 fc ef 3c fd 79 cb bd
       0.1455761 -0.039626088 0.02929513 -0.09935377
0002b0 35 01 e2 3d 3e f9 14 3d 7a 30 89 bd e3 37 89 3d
       0.110353865 0.03637051 -0.06698699 0.06700113
0002c0 f5 38 bb 3c 76 b1 69 3d 47 20 ef bc 3f 68 e1 bd
       0.022854308 0.057054006 -0.029190196 -0.110062115
0002d0 a3 14 05 be 8c a7 13 bd 0b 1f 39 bd ba 0b 06 3c
       -0.12996154 -0.036048457 -0.04519562 0.008181507
0002e0 d7 b6 56 3d ec 11 27 3d 56 31 d5 bd b7 ae 77 3d
       0.052420463 0.040788576 -0.10409801 0.060469355
0002f0 b8 be 6c bd 24 33 c0 bd 56 26 c6 3d eb c4 46 bd
       -0.05779907 -0.09384754 0.09675281 -0.04852764
000300 f8 49 44 ba b8 ce b9 bc 68 6d a1 3d c7 80 a0 bd
       -0.0007487829 -0.022681579 0.07882196 -0.07837062
000310 91 18 d1 bd a0 46 75 bd 0c b9 ff bd 07 45 70 3d
       -0.10209764 -0.059881806 -0.12486467 0.05865958
000320 e8 d7 09 3d bc ca d8 bd fe 6a df 3d 5f ac 68 3c
       0.03365317 -0.105855435 0.10909079 0.014201253
000330 9e 73 56 3d 6d 7d 7c 3c ec c5 b7 bd 34 8b cb 3c
       0.052356355 0.015410763 -0.089732975 0.02484665
000340 f9 4a 92 bb bc 58 6c 3d bf c2 db 3b 58 57 a0 bd
       -0.004464504 0.05770181 0.006706565 -0.078291595
000350 e0 0c db bd 84 53 f8 bb 03 49 08 3d 45 57 b4 bc
       -0.10695815 -0.007578315 0.033272754 -0.02201427
000360 fd 73 47 bd 7a e7 d4 bd 9a e9 45 bd 35 a7 ae bd
       -0.0486946 -0.10395713 -0.048318483 -0.08527986
000370 51 c6 ad bd f0 6f b8 bd f2 c4 1f 3d 2f d2 7b bd
       -0.084850915 -0.090057254 0.03900618 -0.061479744
000380 d3 ac 35 3d e0 a7 af bd 47 86 79 3d de 9d e3 3d
       0.04435427 -0.085769415 0.060919072 0.11114095
000390 7b e1 92 3d 6d 5e 98 bd 7d 0d 12 be a6 b4 71 3d
       0.07171913 -0.07439885 -0.14262958 0.05901017
0003a0 74 f2 c0 bc 02 8f 72 3d db 23 3d 3e ce 5b f4 3d
       -0.02355311 0.059218414 0.18470709 0.11931573
0003b0 9a 0a cc bc 6c 05 d1 3d b2 50 7f 3c 81 cf 68 bd
       -0.024907399 0.10206112 0.015583204 -0.056838516
0003c0 d9 ed 46 3c b8 ac 8d 3d cb 2a bd 3d a1 3c f9 bd
       0.012141668 0.06917709 0.09236678 -0.12169767
0003d0 ff 7b 17 bd dc 61 0b 3d 16 d2 bd 3d de f7 0b 3d
       -0.036983486 0.034028873 0.09268586 0.03417193
0003e0 49 d4 98 bd 45 7e b0 3d a2 07 0b bd 5b 41 a4 bc
       -0.07462365 0.08617834 -0.033942826 -0.020050695
0003f0 fb e1 9c 3c 35 37 66 bb 4f 72 be bd c2 9d df 3d
       0.019150725 -0.003512812 -0.092991464 0.10918762

bias f4 [64]
000000 6d 23 a2 bc aa a4 8a 3d e9 72 5a bc 54 69 42 3d
       -0.019792283 0.067696884 -0.013333061 0.04746373
000010 d6 b4 28 bd 25 e1 11 3e de eb cc bc df d0 9c 3c
       -0.041188084 0.14246042 -0.025014814 0.019142566
000020 c1 03 dc 3b 1c 01 da ba 82 e2 aa bd c2 30 2c bc
       0.0067143147 -0.0016632411 -0.08343984 -0.010509672
000030 b8 a0 e3 3b 1d f9 46 3e 06 ab 56 3d a2 30 0b bd
       0.0069466494 0.19430967 0.052409194 -0.033981927
000040 47 c6 10 bd 70 64 2c bc 1e d7 92 ba 1d 9a 24 be
       -0.035345342 -0.010521993 -0.0011203026 -0.16074415
000050 24 1d 91 bc 19 f2 1b be 03 ce a7 3d 78 53 4a bd
       -0.01771409 -0.15229072 0.081935905 -0.04939601
000060 92 61 7a 3d 05 36 8d 3c b9 4b 0e 3d c5 77 b3 3d
       0.061128207 0.017237673 0.034740184 0.087630786
000070 f5 2f d2 bc d7 40 2d 3d cc 29 ea bc 22 c3 fd 3c
       -0.025657633 0.042298164 -0.028584383 0.030976836
000080 86 b2 8f 3c b7 d7 01 3e 9f 17 0f 3e f5 a5 47 3c
       0.017541181 0.12679945 0.13973854 0.012185563
000090 71 ba 72 3d f1 a5 63 3c d9 aa d0 3c fd 92 8d bc
       0.059259836 0.013894544 0.025472092 -0.017282004
0000a0 5c 5d 87 3c f5 d9 61 bc 6f be cc bc c8 1c 03 3e
       0.01652401 -0.013784875 -0.02499315 0.12803948
0000b0 cd 67 b4 3d e9 46 d6 bd 55 57 d6 3d d6 97 e2 3d
       0.08808861 -0.10462744 0.10465876 0.11064117
0000c0 38 f9 c8 3d e0 da 3f 3d bf c4 35 bb 6d 57 34 3d
       0.0981316 0.046839595 -0.0027735678 0.04402869
0000d0 0c 28 fd bb e2 f0 f2 3c da 95 ce bd ae 40 a8 3d
       -0.007725721 0.029655878 -0.10087176 0.08215462
0000e0 80 10 46 3d 04 12 45 bd ed d0 0b bc 7c bd 04 bc
       0.04835558 -0.048112884 -0.0085336985 -0.008101817
0000f0 a3 16 a9 bd 93 9d 22 be d7 a9 16 3d 20 9f 80 bd
       -0.08256271 -0.15880422 0.036783066 -0.06280351

weight f4 [100, 64]
000000 d9 c7 ce bd 80 5c 22 be 5e 78 9c 3d 2d 8c 84 bd
       -0.10096712 -0.15855598 0.07640146 -0.06472049
000010 45 f7 a3 3d a5 19 f3 bd 03 3f ea ba e4 06 a3 3d
       0.08006147 -0.11870126 -0.0017871562 0.07960299
000020 f3 7c ea bb 18 38 7e be b0 40 18 be ce aa bd 3d
       -0.0071560084 -0.24826086 -0.14868426 0.09261094
000030 05 fc 6b be db eb 12 3e 72 ec bd bc ab a5 08 bd
       -0.23045357 0.14347784 -0.023184035 -0.03336112
000040 6f 48 2f bd 79 42 98 bc f3 ed 05 be c4 2f 70 3d
       -0.042793687 -0.018586384 -0.13079052 0.058639303
000050 98 a0 0e bd 24 7a 6a 3d 47 f4 75 bd bf d5 43 be
       -0.034821123 0.05724539 -0.060047414 -0.19124506
000060 07 36 23 bd a5 7d 17 3d be 97 29 3d f4 af 30 bd
       -0.039846446 0.03698506 0.04140448 -0.043136552
000070 9f 04 58 be 4a 99 46 3d f6 84 84 3d c5 f9 52 3d
       -0.21095513 0.04848603 0.06470673 0.05150773
000080 04 63 83 bd 55 34 61 bd 00 12 63 bd 8b 2c 9e bd
       -0.0641537 -0.05498155 -0.055437088 -0.0772334
000090 7f 64 2e bd 61 3d 66 bd 40 12 c4 bd a6 21 26 3d
       -0.04257631 -0.05621088 -0.095737934 0.040559433
0000a0 58 a0 60 bd 62 02 9e 3d 08 25 29 bd 97 07 0d 3b
       -0.054840416 0.07715298 -0.04129508 0.0021519416
0000b0 95 60 c6 bd 28 0a 23 3d d5 56 e4 3d ac b4 a9 3b
       -0.0968639 0.039804608 0.111493744 0.0051790085
0000c0 63 43 e2 3c ef 94 5e bd ab 70 c4 bd 05 3d 22 bd
       0.027620023 -0.054341253 -0.09591802 -0.039608974
0000d0 40 08 f5 bd 04 87 71 bd 1a 6e 12 bd 9d 2f a4 bd
       -0.11964464 -0.05896665 -0.035749532 -0.08016894
0000e0 11 36 2e 3d c1 64 03 3e 61 b4 bd bd 93 2c 9b 3c
       0.04253203 0.12831403 -0.0926292 0.018942153
0000f0 e0 90 b6 3c ca 4b 9f 3d 21 67 b3 3d 50 d3 b3 3d
       0.022285879 0.077781275 0.08759905 0.08780539
000100 1a f0 cc 3c 4d dd 08 be 5a 8e e1 3d e7 6b dd 3d
       0.025016833 -0.1336567 0.110134795 0.10811596
000110 f4 75 d8 bc 64 77 de 3c f2 ed 5c bd 79 20 c9 bc
       -0.026423432 0.02715654 -0.05393786 -0.024551617
000120 b5 2d f1 3b 65 c2 f4 bd 82 23 b0 bd 26 66 41 3d
       0.007360185 -0.1195114 -0.086005226 0.047216557
000130 d4 bf 4d 3a f3 ca 99 bd ce 28 87 3c e9 6a f1 3d
       0.0007848714 -0.075094126 0.01649895 0.117879696
000140 88 1f 91 3d 85 be 01 be e7 13 98 bd 0d 51 11 3d
       0.07086092 -0.12670334 -0.07425671 0.035477687
000150 1a 43 f1 3c 10 f1 cc bc 44 ae 90 bd d1 99 ac bd
       0.029450942 -0.025017291 -0.070644885 -0.08427776
000160 37 88 b9 3d 3a 40 bb 3d f5 6e bc bd f7 3e ad bd
       0.09059184 0.091431096 -0.09200851 -0.08459275
000170 6b 35 17 3c 9f 30 40 bc c3 4f c9 3d ef c5 f1 bc
       0.009229044 -0.011730342 0.098296665 -0.029513327
000180 97 87 22 3d 58 f1 7f 3d d3 ab 89 3d 1c 22 64 be
       0.03968009 0.062486023 0.06722226 -0.22278637
000190 87 22 af 3d b7 8a 03 3d 67 6f d8 3c 7b d2 31 3d
       0.085515074 0.03211471 0.026420308 0.04341362
0001a0 90 e2 51 3c 20 19 fe 3b af 4f d3 3d 70 15 f8 bd
       0.012810364 0.00775446 0.10317933 -0.12113464
0001b0 08 ec bb bd e6 c9 58 3d 2f b3 e3 3c 2f 1c 0f be
       -0.09175879 0.05292692 0.027795402 -0.13975595
0001c0 83 64 6c bd af b8 f5 bc 1e 4e 35 3d b3 1f 89 bd
       -0.057713043 -0.02999529 0.04426395 -0.06695499
0001d0 4d 38 a4 bd f1 3c 83 3d da 33 93 bd 48 8d 7d bd
       -0.08018551 0.06408108 -0.07187624 -0.061902314
0001e0 42 0e 84 bd b8 7d b8 bc a6 33 c0 bd 46 f9 55 bd
       -0.06448032 -0.022520885 -0.09384851 -0.05223968
0001f0 da a5 a8 bd 46 c0 7b 3b a6 d7 09 3d 3b 1e 0a 3d
       -0.08234759 0.0038414164 0.033652924 0.033720236
000200 3b f3 c2 3c 30 3b 95 3d 6f b7 27 3e ee fc 36 be
       0.023797622 0.0728668 0.16378568 -0.17869923
000210 e6 03 9a 3c 43 84 b9 bc d6 f3 11 be db 29 84 bc
       0.018800687 -0.022646075 -0.14253172 -0.01613324
000220 5c 7e 9a 3d ae 11 14 be 88 27 50 3c c3 97 53 bd
       0.075436324 -0.1445987 0.0127047375 -0.051658403
000230 48 ec 4d bd 56 1f 63 3d dd 52 4e 3d 39 c9 c4 bc
       -0.050274163 0.055449806 0.050371993 -0.024021732
000240 e2 71 08 3e 13 41 9a bd d5 ad 37 bd 6b be 49 3d
       0.13324693 -0.07531943 -0.044843514 0.049253862
000250 56 06 dc 3c 13 5d b5 3d 61 c3 c0 3d ae 8a 07 be
       0.02685849 0.08855643 0.094122656 -0.13236496
000260 33 08 a3 bd 8c 51 14 3d 6c 27 ec bc 36 87 bc 3d
       -0.07960548 0.03621058 -0.028827392 0.09205477
000270 81 61 19 be 66 04 bd bb 7a 5d 7b bd d5 89 f5 bc
       -0.14978601 -0.0057683466 -0.061368443 -0.02997295
000280 a7 ab df 3c 8d 4e 3f bd 4b 77 c7 bd ed 22 da bc
       0.02730353 -0.04670577 -0.0973955 -0.026627982
000290 ed ec 20 3d f9 b3 18 3d 99 77 9d bd ef ef 7f 3d
       0.03928845 0.03728101 -0.07688827 0.062484678
0002a0 9e 3c da bd fc 57 6e bd 4e 4b 3c ba dc 33 3f bc
       -0.10656093 -0.058189377 -0.0007182852 -0.011670079
0002b0 6c 73 f7 bc d6 59 9b 3d a2 0f c6 bd 64 34 ca bd
       -0.030206405 0.07585494 -0.096709505 -0.09873274
0002c0 46 95 b0 bd bd 91 c9 3d c0 ab b5 3c 0d 4f d3 bd
       -0.08622222 0.098422505 0.022176623 -0.10317812
0002d0 b6 e2 ac bd 5c ac bf bc 79 b2 25 3d 9d 46 96 3c
       -0.08441679 -0.023397617 0.040453408 0.018344218
0002e0 c8 c8 95 bc 5b 76 da 3d b3 4e 9b 3c ce ba 73 3d
       -0.018284217 0.10667106 0.018958425 0.059504323
0002f0 4f f1 48 3d cf 6d 81 3c 9f 17 e2 bd 83 3e 6b bd
       0.049058255 0.015799431 -0.110396616 -0.057432663
000300 2e b5 56 3d a9 69 9a bd 2d 9e a2 3d 2c a9 3e bd
       0.05241888 -0.07539684 0.07940326 -0.046548054
000310 0e 36 df bd c0 ab 83 3c 22 70 25 3c 60 90 4c bd
       -0.10898982 0.016073108 0.010097535 -0.049942374
000320 32 d0 88 bc 2f e7 21 be b9 16 3e 3d 8b 59 8f 3d
       -0.016700838 -0.15810846 0.04640839 0.06999501
000330 bb be e3 bb 66 d8 af bd 01 25 b9 3d 31 cb 19 be
       -0.006950227 -0.085861966 0.09040261 -0.15018918
000340 be fa e4 3d 1e ca 6b 3d fa 15 a4 bd 41 7c d0 3c
       0.11180638 0.0575658 -0.08012004 0.025449874
000350 9e 4e 3b be 54 81 aa bd 56 17 6c bd 30 4d 5a be
       -0.18291709 -0.08325449 -0.057639442 -0.21318507
000360 93 52 85 3d 15 86 0b be 14 b7 e9 3c 13 74 01 bc
       0.065098904 -0.13625367 0.028529681 -0.007901209
000370 4e b4 0d be 67 3b 6e bc 19 9d 9c bd 31 88 25 3d
       -0.13838312 -0.01454053 -0.076471515 0.040413085
000380 cf ff 1f bc e4 2f 38 3d 5c 31 3d bd 19 c0 40 bc
       -0.009765579 0.044967547 -0.04618965 -0.01176455
000390 1a 84 5c 3a 52 28 8d 3d 9f c2 fd bd 54 f7 fc 3d
       0.00084120187 0.06892456 -0.12390637 0.123518616
0003a0 5e 76 00 bd 36 0d ff 3b cb 54 d3 bc 66 db dc bd
       -0.031362884 0.0077835573 -0.025797268 -0.107840344
0003b0 97 b4 8e 3d 08 c9 3e 3c 73 aa b0 3d 8e a5 32 be
       0.069680385 0.011644609 0.086262606 -0.17445967
0003c0 af 54 b4 bd b0 63 4a 3d ab 2f 6c bd a1 f4 bc bd
       -0.088052146 0.049411476 -0.057662647 -0.09226347
0003d0 3a b2 fb bd 38 23 56 b8 92 73 3e bd a6 4a 8a 3d
       -0.122898534 -5.1054376e-05 -0.046496935 0.06752519
0003e0 3c ea 8c 3d aa 38 f4 3d 24 83 8e bd c6 99 7a 3d
       0.06880614 0.1192487 -0.06958607 0.061181806
0003f0 01 76 b9 3d a3 a1 2f bc e6 81 d3 3c 4a a3 5b 3b
       0.090557106 -0.01071969 0.025818776 0.0033514076

bias f4 [100]
000000 3a 41 cf bd 5a 7e 34 3d c4 cc 96 3c 86 1a d6 bd
       -0.10119863 0.04406581 0.018408187 -0.10454278
000010 7a 1c 04 bc f0 06 82 36 11 e4 b4 bb e5 a0 38 bd
       -0.00806343 3.8751095e-06 -0.0055203517 -0.045075316
000020 68 3b 6f bd 1f 06 e9 bc 68 7b 1d 3d 9d 88 5c bd
       -0.058406264 -0.028445302 0.038447767 -0.053841222
000030 04 ae 86 bd d2 ae ba bd ce d3 a5 3d 5b 4b 97 3d
       -0.065761596 -0.091153756 0.08097039 0.0738742
000040 d8 91 9b bd 98 36 04 3d cf 2d 8e 3c bc b8 10 be
       -0.07596177 0.032278627 0.017355828 -0.1413297
000050 cd 40 5c bd 70 72 48 3d f8 bc eb bc 25 76 17 3c
       -0.053772736 0.04893726 -0.02877663 0.009244476
000060 27 1e d2 3c 53 1a ed bd a5 83 95 bd 0c 16 63 bd
       0.025649143 -0.115772866 -0.073005 -0.055440947
000070 6a c2 05 be 0c bb bb bb 0f 63 65 3b a4 8c 08 be
       -0.13062444 -0.005729085 0.003500167 -0.133349
000080 66 90 2c 3d be 2e e9 3d 61 14 06 3e cf 81 10 bd
       0.042129897 0.113858685 0.13093711 -0.035280045
000090 26 fa 0a 3e fb f3 df bd af 4a 20 3d 29 27 fe bb
       0.13571987 -0.109352075 0.039133724 -0.007756133
0000a0 53 e6 bf 3d 1b 51 bd 3d e0 a3 03 be c6 b0 bf 3d
       0.09370103 0.09243985 -0.12855482 0.09359889
0000b0 1f 25 c4 3c c1 07 97 3d 28 05 52 3d 2f b6 c7 bd
       0.023943482 0.07374526 0.05127445 -0.09751546
0000c0 a4 78 1a bd ad b2 74 bc c7 f4 52 bc 13 70 11 3d
       -0.037712708 -0.014935178 -0.012875742 0.035507273
0000d0 c4 f7 30 bd 38 30 8a bd 2d c7 9f bd 6d 85 ce bd
       -0.043205038 -0.06747478 -0.07801662 -0.10084043
0000e0 e5 7c db bd 13 1f a4 bc f5 d0 e8 3d ee 10 29 bd
       -0.10717181 -0.020034349 0.113679804 -0.04127591
0000f0 51 ca 8d 3d 31 ca 6b bd 14 a9 ab 3c d0 a2 05 3e
       0.069233544 -0.05756587 0.020954646 0.1305039
000100 50 ba e6 bd 91 50 15 3e dc a3 84 bd 0c 76 f3 bd
       -0.11266005 0.14581515 -0.06476566 -0.1188775
000110 b5 16 28 bb e0 c1 38 be 43 9f 11 3d ef 34 ec 3d
       -0.00256483 -0.18042707 0.035552274 0.11533534
000120 46 46 0f be fe 2d ff bc c3 31 d5 bd 44 3c 6e 3a
       -0.13991651 -0.03114986 -0.10409882 0.000908796
000130 77 c5 06 bd 80 da 10 be 4b 57 d0 bd 75 d6 2b 3e
       -0.03290316 -0.14145851 -0.101729 0.16781028
000140 1a b8 02 3e e1 53 74 3c 18 7f 42 bc e6 86 ae bd
       0.12765542 0.014912576 -0.011871122 -0.085218236
000150 d5 9b 21 3e 5e 49 4b 3b 1d 28 8c 3d 99 9d dd 3d
       0.15782101 0.0031019072 0.068435885 0.10821075
000160 40 ff 67 bd 8e d0 a8 3d 2d 06 54 3c c6 02 a0 3d
       -0.05663991 0.08242904 0.012940926 0.07813029
000170 a3 b4 05 bd 28 b5 01 3d cb d2 90 3c 0a dc 2f bd
       -0.03264297 0.031666905 0.017678639 -0.042934455
000180 27 e7 80 bc d5 45 a5 3d 8d e7 1a bd c0 2a f7 bb
       -0.015735222 0.0806996 -0.03781848 -0.007542938
